…
[34m[1mwandb[39m[22m: [33mWARNING[39m The save_model argument by default saves the model in the HDF5 format that cannot save custom objects like subclassed models and custom layers. This behavior will be deprecated in a future release in favor of the SavedModel format. Meanwhile, the HDF5 model is saved as W&B files and the SavedModel as W&B Artifacts.
Epoch 1/5
Model: "model_1"
_________________________________________________________________
 Layer (type)                Output Shape              Param #
=================================================================
 input_1 (InputLayer)        [(None, 224, 224, 3)]     0
 block1_conv1 (Conv2D)       (None, 224, 224, 64)      1792
 block1_conv2 (Conv2D)       (None, 224, 224, 64)      36928
 block1_pool (MaxPooling2D)  (None, 112, 112, 64)      0
 block2_conv1 (Conv2D)       (None, 112, 112, 128)     73856
 block2_conv2 (Conv2D)       (None, 112, 112, 128)     147584
 block2_pool (MaxPooling2D)  (None, 56, 56, 128)       0
 block3_conv1 (Conv2D)       (None, 56, 56, 256)       295168
 block3_conv2 (Conv2D)       (None, 56, 56, 256)       590080
 block3_conv3 (Conv2D)       (None, 56, 56, 256)       590080
 block3_pool (MaxPooling2D)  (None, 28, 28, 256)       0
 block4_conv1 (Conv2D)       (None, 28, 28, 512)       1180160
 block4_conv2 (Conv2D)       (None, 28, 28, 512)       2359808
 block4_conv3 (Conv2D)       (None, 28, 28, 512)       2359808
 block4_pool (MaxPooling2D)  (None, 14, 14, 512)       0
 block5_conv1 (Conv2D)       (None, 14, 14, 512)       2359808
 block5_conv2 (Conv2D)       (None, 14, 14, 512)       2359808
 block5_conv3 (Conv2D)       (None, 14, 14, 512)       2359808
 block5_pool (MaxPooling2D)  (None, 7, 7, 512)         0
 flatten_1 (Flatten)         (None, 25088)             0
 dense_1 (Dense)             (None, 10)                250890
=================================================================
Total params: 14,965,578
Trainable params: 250,890
Non-trainable params: 14,714,688
_________________________________________________________________